…
:{"id":"RtZdbsjEKttd","colab":{"base_uri":"https://localhost:8080/"},"outputId":"8c0ba0f1-dd12-4084-fbe3-810048b15169","executionInfo":{"status":"ok","timestamp":1651085942447,"user_tz":240,"elapsed":261,"user":{"displayName":"Faiz Andrea Ganz","userId":"07639753498586550069"}}},"execution_count":null,"outputs":[{"output_type":"stream","name":"stdout","text":["----------------------------------------------------------------\n","        Layer (type)               Output Shape         Param #\n","================================================================\n","            Conv2d-1           [-1, 32, 32, 32]             864\n","       BatchNorm2d-2           [-1, 32, 32, 32]              64\n","            Conv2d-3           [-1, 32, 32, 32]          25,600\n","       BatchNorm2d-4           [-1, 32, 32, 32]              64\n","            Conv2d-5           [-1, 32, 32, 32]           9,216\n","       BatchNorm2d-6           [-1, 32, 32, 32]              64\n","        BasicBlock-7           [-1, 32, 32, 32]               0\n","            Conv2d-8           [-1, 32, 32, 32]          25,600\n","       BatchNorm2d-9           [-1, 32, 32, 32]              64\n","           Conv2d-10           [-1, 32, 32, 32]           9,216\n","      BatchNorm2d-11           [-1, 32, 32, 32]              64\n","       BasicBlock-12           [-1, 32, 32, 32]               0\n","           Conv2d-13           [-1, 64, 16, 16]          51,200\n","      BatchNorm2d-14           [-1, 64, 16, 16]             128\n","           Conv2d-15           [-1, 64, 16, 16]          36,864\n","      BatchNorm2d-16           [-1, 64, 16, 16]             128\n","           Conv2d-17           [-1, 64, 16, 16]           2,048\n","      BatchNorm2d-18           [-1, 64, 16, 16]             128\n","       BasicBlock-19           [-1, 64, 16, 16]               0\n","           Conv2d-20           [-1, 64, 16, 16]         102,400\n","      BatchNorm2d-21           [-1, 64, 16, 16]             128\n","           Conv2d-22           [-1, 64, 16, 16]          36,864\n","      BatchNorm2d-23           [-1, 64, 16, 16]             128\n","       BasicBlock-24           [-1, 64, 16, 16]               0\n","           Conv2d-25            [-1, 128, 8, 8]         204,800\n","      BatchNorm2d-26            [-1, 128, 8, 8]             256\n","           Conv2d-27            [-1, 128, 8, 8]         147,456\n","      BatchNorm2d-28            [-1, 128, 8, 8]             256\n","           Conv2d-29            [-1, 128, 8, 8]           8,192\n","      BatchNorm2d-30            [-1, 128, 8, 8]             256\n","       BasicBlock-31            [-1, 128, 8, 8]               0\n","           Conv2d-32            [-1, 128, 8, 8]         409,600\n","      BatchNorm2d-33            [-1, 128, 8, 8]             256\n","           Conv2d-34            [-1, 128, 8, 8]         147,456\n","      BatchNorm2d-35            [-1, 128, 8, 8]             256\n","       BasicBlock-36            [-1, 128, 8, 8]               0\n","           Conv2d-37            [-1, 256, 4, 4]         819,200\n","      BatchNorm2d-38            [-1, 256, 4, 4]             512\n","           Conv2d-39            [-1, 256, 4, 4]         589,824\n","      BatchNorm2d-40            [-1, 256, 4, 4]             512\n","           Conv2d-41            [-1, 256, 4, 4]          32,768\n","      BatchNorm2d-42            [-1, 256, 4, 4]             512\n","       BasicBlock-43            [-1, 256, 4, 4]               0\n","           Conv2d-44            [-1, 256, 4, 4]       1,638,400\n","      BatchNorm2d-45            [-1, 256, 4, 4]             512\n","           Conv2d-46            [-1, 256, 4, 4]         589,824\n","      BatchNorm2d-47            [-1, 256, 4, 4]             512\n","       BasicBlock-48            [-1, 256, 4, 4]               0\n","           Linear-49                   [-1, 10]           2,570\n","================================================================\n","Total params: 4,894,762\n","Trainable params: 4,894,762\n","Non-trainable params: 0\n","----------------------------------------------------------------\n","Input size (MB): 0.01\n","Forward/backward pass size (MB): 5.63\n","Params size (MB): 18.67\n","Estimated Total Size (MB): 24.31\n","------------------------------------
…
